…
a_steps=100, dont_skip_first=False, temp=0.5, hard=False, no_validate=True, no_cuda=False, var=5e-07, encoder_dropout=0.0, decoder_dropout=0.0, no_factor=False, test=False, device=device(type='cuda', index=0), cuda=True, factor=True, validate=False, shuffle_unobserved=True, skip_first=True, use_encoder=True, time='2025-05-21T16:03:20.877382', num_GPU=1, batch_size_multiGPU=128, log_path='cnn_netsim\\2025-05-21T16.03.20.877382')
Using GPU #0
DataParallel(
  (module): CNNEncoder(
    (cnn): CNN(
      (pool): MaxPool1d(kernel_size=2, stride=2, padding=0, dilation=1, ceil_mode=False)
      (conv1): Conv1d(2, 256, kernel_size=(5,), stride=(1,))
      (bn1): BatchNorm1d(256, eps=1e-05, momentum=0.1, affine=True, track_running_stats=True)
      (conv2): Conv1d(256, 256, kernel_size=(5,), stride=(1,))
      (bn2): BatchNorm1d(256, eps=1e-05, momentum=0.1, affine=True, track_running_stats=True)
      (conv_predict): Conv1d(256, 256, kernel_size=(1,), stride=(1,))
      (conv_attention): Conv1d(256, 1, kernel_size=(1,), stride=(1,))
    )
    (mlp1): MLP(
      (fc1): Linear(in_features=256, out_features=256, bias=True)
      (fc2): Linear(in_features=256, out_features=256, bias=True)
      (bn): BatchNorm1d(256, eps=1e-05, momentum=0.1, affine=True, track_running_stats=True)
    )
    (mlp2): MLP(
      (fc1): Linear(in_features=256, out_features=256, bias=True)
      (fc2): Linear(in_features=256, out_features=256, bias=True)
      (bn): BatchNorm1d(256, eps=1e-05, momentum=0.1, affine=True, track_running_stats=True)
    )
    (mlp3): MLP(
      (fc1): Linear(in_features=768, out_features=256, bias=True)
      (fc2): Linear(in_features=256, out_features=256, bias=True)
      (bn): BatchNorm1d(256, eps=1e-05, momentum=0.1, affine=True, track_running_stats=True)
    )
    (fc_out): Linear(in_features=256, out_features=2, bias=True)
  )
)
DataParallel(
  (module): MLPDecoder(
    (msg_fc1): ModuleList(
      (0-1): 2 x Linear(in_features=2, out_features=256, bias=True)
    )
    (msg_fc2): ModuleList(
      (0-1): 2 x Linear(in_features=256, out_features=256, bias=True)
    )
    (out_fc1): Linear(in_features=257, out_features=256, bias=True)
    (out_fc2): Linear(in_features=256, out_features=256, bias=True)
    (out_fc3): Linear(in_features=256, out_features=1, bias=True)
  )
)
0 train	 	loss_kl -7.1391463280 	acc 0.5019047619 	auroc 0.5303703704 	loss_nll 24906158.0000000000 	loss_mse 0.1251565814 	loss 24906150.0000000000 	inference time 0.3117122650 	time: 5.4361s 	
1 train	 	loss_kl -4.8989253044 	acc 0.5123809524 	auroc 0.5210069444 	loss_nll 16097475.0000000000 	loss_mse 0.0808918253 	loss 16097470.0000000000 	inference time 0.3397350311 	time: 5.4159s 	
…
