…
a_steps=100, dont_skip_first=True, temp=0.5, hard=False, no_validate=True, no_cuda=False, var=5e-07, encoder_dropout=0.0, decoder_dropout=0.0, no_factor=False, test=False, device=device(type='cuda', index=0), cuda=True, factor=True, validate=False, shuffle_unobserved=True, skip_first=False, use_encoder=True, time='2025-05-21T13:15:16.319612', num_GPU=1, batch_size_multiGPU=128, log_path='cnn_netsim\\2025-05-21T13.15.16.319612')
Using GPU #0
DataParallel(
  (module): CNNEncoder(
    (cnn): CNN(
      (pool): MaxPool1d(kernel_size=2, stride=2, padding=0, dilation=1, ceil_mode=False)
      (conv1): Conv1d(2, 256, kernel_size=(5,), stride=(1,))
      (bn1): BatchNorm1d(256, eps=1e-05, momentum=0.1, affine=True, track_running_stats=True)
      (conv2): Conv1d(256, 256, kernel_size=(5,), stride=(1,))
      (bn2): BatchNorm1d(256, eps=1e-05, momentum=0.1, affine=True, track_running_stats=True)
      (conv_predict): Conv1d(256, 256, kernel_size=(1,), stride=(1,))
      (conv_attention): Conv1d(256, 1, kernel_size=(1,), stride=(1,))
    )
    (mlp1): MLP(
      (fc1): Linear(in_features=256, out_features=256, bias=True)
      (fc2): Linear(in_features=256, out_features=256, bias=True)
      (bn): BatchNorm1d(256, eps=1e-05, momentum=0.1, affine=True, track_running_stats=True)
    )
    (mlp2): MLP(
      (fc1): Linear(in_features=256, out_features=256, bias=True)
      (fc2): Linear(in_features=256, out_features=256, bias=True)
      (bn): BatchNorm1d(256, eps=1e-05, momentum=0.1, affine=True, track_running_stats=True)
    )
    (mlp3): MLP(
      (fc1): Linear(in_features=768, out_features=256, bias=True)
      (fc2): Linear(in_features=256, out_features=256, bias=True)
      (bn): BatchNorm1d(256, eps=1e-05, momentum=0.1, affine=True, track_running_stats=True)
    )
    (fc_out): Linear(in_features=256, out_features=2, bias=True)
  )
)
DataParallel(
  (module): MLPDecoder(
    (msg_fc1): ModuleList(
      (0-1): 2 x Linear(in_features=2, out_features=256, bias=True)
    )
    (msg_fc2): ModuleList(
      (0-1): 2 x Linear(in_features=256, out_features=256, bias=True)
    )
    (out_fc1): Linear(in_features=257, out_features=256, bias=True)
    (out_fc2): Linear(in_features=256, out_features=256, bias=True)
    (out_fc3): Linear(in_features=256, out_features=1, bias=True)
  )
)
0 train	 	loss_kl -7.1391463280 	acc 0.5019047619 	auroc 0.5303703704 	loss_nll 18651752.0000000000 	loss_mse 0.0937273949 	loss 18651744.0000000000 	inference time 1.2098286152 	time: 6.7248s 	
1 train	 	loss_kl -4.9214673042 	acc 0.4980952381 	auroc 0.5300347222 	loss_nll 27208052.0000000000 	loss_mse 0.1367238909 	loss 27208048.0000000000 	inference time 0.3328864574 	time: 5.3697s 	
…
